best_model.pth (torch, 208738 bytes, 9 tensors)

lstm.weight_ih_l0 f4 [256, 4]
000000 0f b5 0c 3e 10 dc 4b 3e e5 ff 89 3e af 94 8c bd
       0.13740943 0.19908166 0.26953045 -0.06864297
000010 7b e1 4c 3e 39 35 0d 3e 59 38 1a 3c f8 4f a0 3d
       0.20007889 0.13789834 0.009412848 0.07827753
000020 b2 43 bd 3d c7 2b 78 be 5c 48 a3 3d 26 b2 24 3e
       0.092414275 -0.2423545 0.07972786 0.16083583
000030 89 07 ea 3d e5 4f 19 be 8d 8d 82 bc 4b 75 89 3d
       0.114272185 -0.14971884 -0.015936637 0.06711825
000040 e1 14 0d 3e 6d da a3 bd 49 7f dc be 4c 97 b0 3d
       0.13777496 -0.08000646 -0.4306586 0.086226076
000050 09 6d 72 3e b8 f1 ea bb 79 43 0d 3e 8f 97 ba 3e
       0.23674406 -0.0071699284 0.1379527 0.36443755
000060 5d 2d a4 be ed f6 2f 3e 3e ec 16 3e 2a d6 15 3c
       -0.3206586 0.17184038 0.14738557 0.009145299
000070 99 4c 10 3e 57 e6 ed 3c a0 bf b3 bd f6 1f c8 bd
       0.1409172 0.029040499 -0.08776784 -0.09771721
000080 8c 7c 24 be ac 99 56 3d 44 ac a4 be a0 16 e5 3d
       -0.16063136 0.052392647 -0.32162678 0.11185956
000090 14 99 ac bc b0 43 60 be 11 91 69 3c 14 4c 19 3e
       -0.021069087 -0.2190082 0.014255778 0.14970428
0000a0 07 56 6c 3e 5f e2 f0 bd 4f 8c 83 3b 1f bc 12 3e
       0.23079692 -0.11761927 0.004014529 0.14329575
0000b0 22 d0 c0 bd c4 5e 27 be fc 9e 36 3e 69 56 ab 3e
       -0.09414698 -0.16344744 0.17834085 0.33464363
0000c0 5b 7f 69 3d 0c 95 ea bc 26 ea 9e bc 0b 6e 93 3e
       0.05700622 -0.028635524 -0.01939876 0.28794894
0000d0 98 be 47 bd ee ba 6f be 7a 3a 75 bd b8 9b 1e 3e
       -0.04876575 -0.23411152 -0.05987022 0.1548909
0000e0 29 85 3c be f0 40 b4 bd 8d 0d 9d 3e 17 68 08 3d
       -0.18410172 -0.08801448 0.306744 0.033302393
0000f0 2b 2e 0b 3e 99 c9 d3 bd 11 66 01 be 17 ce 29 be
       0.1359183 -0.10341186 -0.12636591 -0.16582523
000100 75 b6 41 be 3b 0a bb 3e 36 30 a6 3e 9a ff bd 3e
       -0.18917258 0.36531243 0.32458657 0.3710907
000110 fc 21 f0 bc d8 8d ff bd 80 16 2f be cf 24 b2 3d
       -0.02931308 -0.124782264 -0.17098427 0.08698427
000120 de f8 8c bd 69 cf cb be a8 8f dd bd 2b 82 a4 3d
       -0.06883405 -0.3980668 -0.10818416 0.0803264
000130 b5 0b 96 be 3f a0 d3 3e 28 d2 22 3e b2 c6 f6 3d
       -0.29305807 0.41333196 0.15900481 0.12049617
000140 f2 d8 1b bd 7f 0f 81 bd c6 8f 71 3e cf bd 6a 3e
       -0.038048692 -0.06301784 0.23590001 0.22923969
000150 8b b1 ca bc a5 47 83 3d 32 3b 80 bd 4f eb 40 3e
       -0.024742862 0.064101495 -0.062612906 0.18839763
000160 75 cb 72 3d bb 09 7d be 33 90 f3 bd b1 13 25 3e
       0.059276063 -0.24710743 -0.11892738 0.16120793
000170 8a ab c3 bd 96 98 e0 3b 97 8d b9 bd 94 6c b6 be
       -0.09554203 0.006854127 -0.09060209 -0.35629714
000180 26 29 db 3b 69 dd e6 bd f9 c6 8b be 5c 25 04 be
       0.006688255 -0.112726994 -0.27300242 -0.12904876
000190 7e f5 c8 bd e8 fe b1 bd 47 60 80 be 6a 9a 66 3d
       -0.09812449 -0.08691198 -0.25073454 0.056299604
0001a0 5f b3 37 3e 15 cd 79 be e9 5c cc 3d 73 02 b6 3e
       0.17939518 -0.24394639 0.09978659 0.35548744
0001b0 b2 ed 0e 3e 95 b9 2d be a6 12 46 3e 8c 79 a5 3d
       0.13957861 -0.16965325 0.19343051 0.08079824
0001c0 30 64 0b 3e 90 6f 8b be fd 47 f8 bd 44 bb 19 bd
       0.13612437 -0.27233553 -0.12123106 -0.037532106
0001d0 df 4f 90 bc c7 07 49 bd 49 18 4a be eb e4 c3 be
       -0.01761621 -0.049079683 -0.19735827 -0.38260588
0001e0 ea 34 f4 3d c1 72 b5 3d 7b 93 f3 bd e5 55 09 3c
       0.11924155 0.08859778 -0.11893364 0.008382295
0001f0 2d 9f ef 3d 9b 1c 18 3e e4 dc 3d bf 88 08 ba 3d
       0.11700282 0.14854662 -0.7416518 0.090836585
000200 11 82 17 3e 57 b7 0a be e1 09 1a bd fa 8b bf 3e
       0.1479571 -0.13546501 -0.037607078 0.3741148
000210 68 4e 33 be 67 a6 6a 3d 6f c3 33 bd e1 2a d3 bd
       -0.17510378 0.0572876 -0.043887552 -0.10310913
000220 e1 cc 8f bd 28 4f 90 be 6f 5b 77 3c f2 d0 c6 3d
       -0.070214994 -0.2818539 0.015097483 0.09707822
000230 dc fd 24 3e 5f 8f a8 bd 1a 15 3e be 65 3c 55 3e
       0.16112465 -0.08230471 -0.18562737 0.2082382
000240 ad 43 ad 3d 32 53 72 be cc b2 3e be 94 de 0d 3e
       0.08460174 -0.23664549 -0.18622893 0.13854438
000250 1e 54 d8 3d 3a 15 3f be bf f1 e6 bd 6f c0 1e bd
       0.10562919 -0.18660441 -0.11276578 -0.038757738
000260 a9 1d db bc 29 15 bc bd 63 cb 3a be 6f db c4 3d
       -0.026747542 -0.091837235 -0.18241648 0.09612166
000270 b3 cf dc 3d 43 3c 99 3c 43 9d 99 bd ab 22 f0 bd
       0.10781803 0.018705493 -0.075006984 -0.117253624
000280 dd 73 76 3d 14 c2 47 be f6 9b 4c be 9c b8 f2 bd
       0.06016909 -0.19507629 -0.1998137 -0.11851618
000290 ae 85 27 be 0c 9a 94 be d4 09 68 be 69 83 6f 3c
       -0.16359589 -0.29023778 -0.22659999 0.014618733
0002a0 a3 f9 60 3c 35 85 05 be 99 5e 38 3e e5 6c a6 3d
       0.013731393 -0.13039096 0.18004836 0.08126239
0002b0 d9 4e ec bd 37 79 32 3e 21 dc 23 bf 5e cd f0 3c
       -0.115384765 0.17429052 -0.64007765 0.029394802
0002c0 95 92 20 bd 4e 69 fe be d4 94 a1 3d d2 d6 57 3e
       -0.03920229 -0.49689716 0.07889715 0.21078041
0002d0 83 ee 01 bd a9 60 e9 bd 29 c6 88 bd 78 36 73 bb
       -0.031721603 -0.113953896 -0.06678421 -0.0037111323
0002e0 7a 35 01 3d 88 30 ab bc d9 6d 7b be ba 62 0e be
       0.03154514 -0.020897165 -0.24553622 -0.13904849
0002f0 77 98 99 3d 02 47 89 be 20 bd 37 3e 07 fb 92 bc
       0.074997835 -0.26811987 0.17943239 -0.017941965
000300 00 91 55 3d c1 a5 13 3c ff 3d b4 be be 99 51 3d
       0.052140236 0.009011687 -0.3520355 0.05117201
000310 94 ae 80 bb e1 0f ac be 27 8e 6b ba 8d 27 c4 3e
       -0.0039270613 -0.33605865 -0.0008985721 0.38311425
000320 80 21 44 bd 98 84 64 3e 51 92 c8 3d ac 74 7f 3e
       -0.04788351 0.22316206 0.09793533 0.2494685
000330 05 05 bb 3c cc 8f 53 be 3a 94 45 3d 65 74 7a 3e
       0.022829542 -0.20660323 0.048237063 0.24458463
000340 9e f8 34 be 70 1c aa 3e 51 ce 3f bd 45 95 a4 3e
       -0.17672965 0.3322482 -0.046827618 0.32145134
000350 fe 6d 82 3e c3 b3 f2 bd 8b a6 b8 3d e6 48 0d 3e
       0.25474542 -0.11850693 0.090161406 0.1379734
000360 6b ef 58 3d 00 72 26 bc 7d ad 49 3e 9e f9 6f 3e
       0.0529627 -0.010159016 0.19695087 0.23435065
000370 5f d9 10 be 26 c6 75 3e 55 e6 12 3e 4c 37 e3 bd
       -0.1414542 0.24001369 0.14345677 -0.110945314
000380 c3 1a 19 3e 1c 3b 8a be 9c 81 2d 3c 57 a7 04 3e
       0.14951615 -0.26998222 0.010589983 0.1295446
000390 5a f3 e2 3d 85 7a 84 be 9c 86 53 3d ff 83 4d 3e
       0.11081572 -0.25874725 0.051642045 0.20069884
0003a0 10 b6 c3 3c 1b b8 25 3d 33 ee cf 3e 2c 06 78 3e
       0.023890525 0.04045878 0.4061142 0.24221104
0003b0 b3 ac 04 3e 4d 93 fd bd c2 74 b2 bd ce 79 d5 3e
       0.12956505 -0.12381611 -0.08713676 0.41694492
0003c0 09 19 89 3d 65 7f ea 3d 48 d9 41 bf e9 9b 94 3b
       0.06694228 0.1145008 -0.7572217 0.0045351875
0003d0 43 8a 8f be d3 ea b1 3e 21 d7 03 3e 10 79 0f be
       -0.28035173 0.3474947 0.12875034 -0.14011025
0003e0 fa 8e da bd cb f7 4a bd 56 a5 85 bd 07 64 24 be
       -0.10671802 -0.04955272 -0.06525676 -0.16053782
0003f0 ce 9e 79 bb 6e ac bd bd b5 f2 b2 3d 0d 30 65 3e
       -0.003808904 -0.09261404 0.08737699 0.22381611

lstm.weight_hh_l0 f4 [256, 64]
000000 d7 12 99 3d 8a 9b 72 be c7 05 c5 3d 04 56 01 bd
       0.074742965 -0.23692146 0.096202426 -0.03157617
000010 4d 7e 96 3d a9 d8 e3 bd 41 46 a7 3e d3 13 cc 3c
       0.07348309 -0.11125309 0.32670787 0.024911797
000020 48 ae 84 bc 16 8a 60 3d bd 40 e4 bd 0b c2 19 bd
       -0.016196385 0.05481919 -0.1114516 -0.03753857
000030 25 e3 b9 3d b4 77 55 bd ea d6 33 3e 28 fc 35 3e
       0.090765275 -0.05211611 0.17562452 0.17771971
000040 3d 0a 77 3e 7f 78 7b bd 85 1d 44 3e 76 3b 8e be
       0.24125 -0.06139421 0.19151886 -0.2777974
000050 9e dd 65 bd 7f 70 91 bd 26 c8 ef bd 92 80 a6 3d
       -0.056119554 -0.07101535 -0.11708097 0.081299916
000060 d7 a4 47 3c 55 47 5b bd 80 4f 98 be 10 a5 ca 3d
       0.012185297 -0.053534824 -0.29748154 0.098947644
000070 c0 58 26 3c 35 34 e9 3b de 37 48 be fe fa 54 3e
       0.010152996 0.0071168193 -0.19552562 0.20798871
000080 05 0a 79 3e 54 63 30 be ec 8c 41 3d 52 b9 2b bb
       0.24320228 -0.1722539 0.047253534 -0.0026202989
000090 1a 37 6e be c1 ed 54 3b 8c 7b 83 be 2f 6a 81 3d
       -0.23263207 0.0032490345 -0.25680196 0.06319081
0000a0 ce 36 ba bd e4 1f fd 3b a8 78 4e bc ae 82 7f bc
       -0.090924844 0.007724749 -0.012602009 -0.015595121
0000b0 85 31 9d be 7d 2a 76 3d b2 95 0b 3e 63 98 3e bd
       -0.30701843 0.060099114 0.13631323 -0.046532046
0000c0 7e ec c4 3e 89 8f 5e 3d 04 25 a9 3c a0 67 07 3d
       0.3846168 0.054336105 0.020647533 0.03305781
0000d0 cb e4 27 3e 85 c0 87 3e 78 38 ba bc ec cd c6 bc
       0.16395871 0.26514068 -0.022732005 -0.024268113
0000e0 52 12 20 bd 33 ce 81 3d 90 3b 35 be e3 24 cc 3d
       -0.03907997 0.063381575 -0.17698503 0.09967973
0000f0 2b da 30 be 8b f4 62 be dc e7 ad bd a4 55 b7 3d
       -0.17270724 -0.22163598 -0.08491489 0.089518815
000100 4f 23 4d 3d cb f3 9c be e8 11 d3 3d b2 99 90 be
       0.0500825 -0.3065475 0.1030615 -0.2824226
000110 ce d1 1e bc 3e 50 18 3e 99 82 1b be 1c 2e 3f bd
       -0.009693576 0.1487436 -0.15186538 -0.046674833
000120 46 1a bb bd 42 6f df 3d 49 d8 89 3c d4 8e 0e be
       -0.09135871 0.109098926 0.016826766 -0.13921672
000130 7d 23 64 be 39 44 2f 3d 67 af 1c 3c 95 24 1c be
       -0.22279163 0.04278967 0.009563304 -0.1524833
000140 88 2e 4c be 30 a2 29 be 82 ae 28 be c2 1a 45 bd
       -0.19939625 -0.16565776 -0.1647282 -0.04812122
000150 c8 89 ad bd aa af ce 3d 1a 9e 2b 3e 01 4c 98 3c
       -0.08473545 0.10092099 0.1675953 0.018590929
000160 a5 07 af 3d aa 20 82 be 3d 17 97 3c 80 d1 09 3d
       0.0854638 -0.25415546 0.018443698 0.03364706
000170 d9 fb cd 3c 73 d0 9c 3d 46 9c e8 bd 70 50 fe 3d
       0.025144504 0.07656946 -0.11357932 0.12417686
000180 b1 79 22 3d 86 35 c2 3c bb 1b b3 3c 21 16 46 3e
       0.039666835 0.023707163 0.021863809 0.19344379
000190 6a 70 9a 3d 1d 26 d5 3d 27 ed 58 3e 44 ec 89 bd
       0.075409725 0.1040766 0.21184216 -0.06734517
0001a0 89 ae 6c bd 67 9a b8 bc 31 43 f8 3d 50 ba 26 be
       -0.057783637 -0.022534562 0.12122191 -0.1628201
0001b0 02 9e 87 3e e9 24 1e bd cb 33 aa bc 95 0b 3e be
       0.26487738 -0.03860942 -0.02077665 -0.18559106
0001c0 d0 2f df 3d c0 59 88 bd 77 82 f2 bd f2 1a 0a bc
       0.108977914 -0.066577435 -0.118412904 -0.008429276
0001d0 17 b0 1d 3e bf 15 3b 3e 74 b9 0b 3e c2 de 97 bc
       0.15399204 0.18270014 0.13644964 -0.018538836
0001e0 73 a4 0e 3e db 73 0a 3d f6 d7 6c 3e d4 5f 7b 3d
       0.1392992 0.033801895 0.23129258 0.061370686
0001f0 0e b2 00 3d 67 8f 96 be 91 66 d9 3d b2 41 f1 3c
       0.031419806 -0.29406282 0.10615266 0.029450271
000200 1a 67 56 3d 1f 7b 6c bd 5a 64 17 3e f6 82 49 bd
       0.05234442 -0.057734605 0.14784375 -0.04919716
000210 0c f8 d6 3b 8a cf 40 3e 78 96 9a 3d f2 fe 16 be
       0.006560331 0.1882917 0.07548231 -0.14745691
000220 ec fd 4e 3d 90 1f e1 bc 34 a7 59 3d 22 bb 16 bd
       0.050535128 -0.02748087 0.053137973 -0.036799558
000230 08 aa c6 3d a8 a0 f8 3d c0 72 31 3e 66 c9 70 3c
       0.097004 0.12140018 0.1732893 0.014696455
000240 07 c0 2c be f5 0c 00 bd 12 23 5b 3e 00 2b 80 bd
       -0.16870128 -0.031262357 0.21400097 -0.062582016
000250 76 0b e7 bd 20 27 6a bd 61 0d 94 bd 26 4b 78 be
       -0.11281483 -0.05716622 -0.07229114 -0.24247417
000260 99 c6 c7 bc c6 0b 3f 3e c5 44 ab be 8e f1 d4 3d
       -0.02438669 0.18656835 -0.33450904 0.103976354
000270 b4 7b 10 bc 6c 5b 9f 3e fa 73 07 3d b3 46 2a be
       -0.008818556 0.31124437 0.03306959 -0.16628532
000280 5b 72 e2 3d 97 96 01 be 72 12 41 bd 65 4a 88 bd
       0.11056968 -0.12655102 -0.04713673 -0.06654815
000290 bf 26 4f 3d 02 85 87 3d 8e d6 28 be 9b bb 43 be
       0.05057406 0.06617166 -0.16488096 -0.19114535
0002a0 ed 7f 01 be b5 bb ab 3d 40 e1 0a 3d 0d cd b2 3d
       -0.12646456 0.08385412 0.03390622 0.087305166
0002b0 61 35 95 bd 35 d1 af bd 21 ce aa 3d 8b 7b 90 bb
       -0.07285572 -0.08584825 0.08340097 -0.0044092587
0002c0 ef e9 46 3e e9 8c 07 be 5c 52 00 3d 4c fb e1 bd
       0.19425176 -0.13237347 0.031328544 -0.11034259
0002d0 e8 c8 ea bc 0a 36 99 3d fb 5b d0 3c 33 de 83 3d
       -0.028660253 0.0748101 0.025434485 0.064388655
0002e0 3d 58 30 be af 48 90 bd 5a b7 62 be af af 13 3e
       -0.1722116 -0.07045113 -0.22140256 0.14422487
0002f0 b4 fc e0 bc 07 bd 1d be 19 47 c2 bd 89 e5 11 be
       -0.027464248 -0.1540414 -0.09486217 -0.14247717
000300 75 6e b1 bb d7 d4 56 be 0b 78 da 3c 6d cb 10 be
       -0.005414779 -0.2097963 0.02666857 -0.14140101
000310 1e 62 05 be 3e 61 80 3e f3 4d 8d bd cd 3e be be
       -0.1302571 0.2507419 -0.06899633 -0.37157288
000320 fd ec ef bd a1 13 c8 3c 3a 10 93 bd af 4f 29 bb
       -0.11715124 0.024423422 -0.07180829 -0.0025834849
000330 54 94 d9 3d 11 26 fc b9 79 b5 9f 3e f9 2a d0 bd
       0.106239945 -0.00048093547 0.3119314 -0.101644464
000340 8f 5e 04 3d e1 8a aa bd 7f f7 9d 3d b9 63 b7 bd
       0.03231674 -0.0832727 0.07713222 -0.089545675
000350 0d 14 4e bc e9 59 63 bd 57 6d d5 bd f3 13 93 be
       -0.012578023 -0.055505667 -0.104212455 -0.28726158
000360 34 e9 74 3d a9 1b ff 3d 6a 8b a6 be 5e b6 72 bd
       0.059792712 0.12456448 -0.3252824 -0.05925595
000370 c6 e3 7c 3c 24 df ac 3e 88 7c ba bd 79 13 93 be
       0.015435165 0.33763993 -0.09105784 -0.28725794
000380 e0 37 20 3d 38 9d 94 bd 59 66 ae bd c4 69 02 3e
       0.039115787 -0.072565496 -0.08515615 0.12735659
000390 6f e3 8a bd ec 6b 7e 3e f2 48 c3 bd 0e e2 64 3d
       -0.06781661 0.24845856 -0.095353976 0.055879645
0003a0 33 d9 45 3d 02 8a a3 3d 1a 5b 07 3e 95 f9 ec bd
       0.04830284 0.07985307 0.13218346 -0.115710415
0003b0 99 f1 43 be ce 25 ab bd d4 08 81 be c5 84 92 bd
       -0.19135131 -0.0835682 -0.25202048 -0.0715423
0003c0 cb 5f fc 3e 65 14 fc bd 7d d1 45 bd 15 40 44 bb
       0.49291834 -0.123085774 -0.048295487 -0.0029945422
0003d0 78 2a 90 bc 6a 22 a2 3c 3f 37 cb 3d 1c bb 86 be
       -0.017598376 0.0197918 0.09922647 -0.26314628
0003e0 6f cf 98 bd d6 cc e8 bd 5c 10 53 bc 10 58 05 3e
       -0.0746144 -0.11367194 -0.012882318 0.13021874
0003f0 5f 9a 98 3c 9a ad 7c be a2 96 ea bc 18 7d 2a bd
       0.018628297 -0.24675599 -0.02863628 -0.041623205

lstm.bias_ih_l0 f4 [256]
000000 2d 95 04 3d 4c 0e 00 3e 68 55 ce 3d 6a 70 06 3e
       0.032368828 0.12505454 0.10074884 0.1312882
000010 01 d1 4c 3d c1 a2 ff 3d 84 3e 92 3d 20 77 de 3d
       0.05000401 0.12482215 0.0714083 0.10862565
000020 3a aa d4 bd bb 9d 12 3d 6c 53 d7 3c 04 bd d7 bd
       -0.10384031 0.035794955 0.026284896 -0.10534099
000030 37 5c f4 bb 8f b5 7f bd 2a dd 56 bc 32 3f 59 bc
       -0.007457282 -0.062429007 -0.013114253 -0.013259696
000040 b3 ce 30 3e 6a 6e c3 3c 44 78 ac 3d 67 46 29 3d
       0.1726635 0.02385636 0.08421376 0.041326907
000050 c0 f5 b8 bd b9 45 9a 3d 65 50 c0 3c 12 9c 19 3c
       -0.09031248 0.0753283 0.023475835 0.009375589
000060 46 4f 92 bd 84 a6 a2 3d 6c c4 b7 3d 83 37 30 bc
       -0.071440265 0.079419166 0.089730114 -0.0107554225
000070 5c d5 29 bd a9 43 27 bb a6 18 1f bd f1 3b 7b 3e
       -0.04146324 -0.0025522506 -0.038841866 0.24534585
000080 e1 f5 ba 3d 00 90 2b 3e 95 f2 bd 3d ee f7 40 3e
       0.09128929 0.1675415 0.092747845 0.18844578
000090 32 42 66 3d f2 1d b6 bb 2c 6b d2 3c cf 53 fe bd
       0.056215473 -0.005557769 0.02568587 -0.12418329
0000a0 da 26 11 3c 5a 0a 32 3d 00 c5 cf 3d 26 cd 60 3e
       0.008859361 0.043466903 0.10144997 0.21953258
0000b0 a5 da 1e be 11 fe 47 3c e2 59 1b bd bf 70 95 3d
       -0.15513094 0.01220657 -0.037927516 0.07296895
0000c0 26 25 89 3d e3 e2 b7 bd e0 74 11 be 76 01 09 bd
       0.066965386 -0.08978822 -0.1420474 -0.03344866
0000d0 31 2c 3a 3e 44 43 13 3c c7 5a c8 bd b1 3f 2a 3e
       0.1818092 0.008988205 -0.097829394 0.16625859
0000e0 61 e8 13 bc 99 6c 27 bd 27 63 ae bc f1 3e 14 3e
       -0.009027571 -0.04087505 -0.021287514 0.14477135
0000f0 0d 30 4c 3e 1f 64 03 3d c2 af 6f bd f4 b9 87 bd
       0.19940205 0.032077905 -0.058517225 -0.066272646
000100 fa db 7e be d8 d2 25 3e 36 53 b2 3d c2 9a a3 bc
       -0.24888602 0.16193712 0.087072775 -0.019971255
000110 3d d3 27 3d 3f 3a f9 bd 84 a3 37 bd 44 f4 df 3a
       0.040972937 -0.12169313 -0.044833675 0.0017086347
000120 87 33 1c 3d 39 c1 1a 3d 86 78 71 3d 1c f3 18 3d
       0.038135078 0.037781928 0.05895283 0.037341222
000130 5d 7f 11 bd 13 be 67 3d 2d 72 7e be d8 02 fe bd
       -0.035521854 0.056577753 -0.24848242 -0.12402886
000140 cf de b3 3a ee 98 1f bb 93 af 15 bd 92 2d ec 3b
       0.0013723018 -0.0024352628 -0.036544394 0.007207581
000150 37 de d5 3d dc 0a 35 be 8c d5 14 3e bf 0b 18 3d
       0.10442775 -0.17679924 0.14534587 0.037120577
000160 17 fe f3 bd a3 f8 f8 3c 1a 97 ea b9 f4 06 28 3d
       -0.11913698 0.030391997 -0.00044744537 0.041022256
000170 3a 9c 87 bd 62 d6 48 3e a1 3f 62 bd bf d7 b4 bb
       -0.06621595 0.1961303 -0.055236463 -0.005518883
000180 2c 97 ab bd be 5c 24 3e ca 97 8a 3d 53 73 8e bd
       -0.08378443 0.16051003 0.06767233 -0.0695559
000190 0c 34 b1 3d 71 97 91 bd d1 06 1b be 21 78 06 be
       0.08652505 -0.07108963 -0.15139319 -0.13131763
0001a0 d1 9a 11 3e e2 49 7b 3d 48 aa 89 3c a6 6f 79 3d
       0.14219214 0.061349757 0.01680483 0.060897492
0001b0 1e 41 3b be e5 c4 7f 3a ac bc e4 3c 4a 33 70 3c
       -0.18286559 0.00097568176 0.027921997 0.014660666
0001c0 41 1d 58 bd cf 77 d9 3d 6c fb 27 3d 3c 5c 9d bd
       -0.052762274 0.10618555 0.04101126 -0.07683608
0001d0 a7 d2 39 3d bf d3 6b 3c 18 4e 43 bb b8 02 a2 bc
       0.04536691 0.014393746 -0.0029801186 -0.019776687
0001e0 30 e8 ae 3c 20 60 2a 3c ee 7c 87 3e a0 68 d2 bd
       0.02135095 0.010398895 0.264625 -0.10273862
0001f0 cd e6 82 bd 32 5e 5b 3d 17 0b 4d bd 26 7a 10 3e
       -0.06391678 0.05355663 -0.050059404 0.14109096
000200 f7 37 14 bd 59 09 bd 3d 6b 51 e5 bc ec d9 ae 3d
       -0.036186185 0.092302985 -0.027992925 0.08537659
000210 99 6f e3 3c 51 d2 00 bc 88 1c 96 3d 9c b8 99 bd
       0.027763175 -0.007862643 0.07329661 -0.075059146
000220 1c ab f2 3d 59 8b 9b bd 85 41 a8 3c 54 11 35 3d
       0.11849043 -0.07594938 0.020539055 0.04420598
000230 ed 96 bd bc 27 97 3b bd 43 b8 0b bd 7c f5 23 bc
       -0.023143256 -0.045798447 -0.034111273 -0.0100072585
000240 7f 64 59 bd 12 60 df 3d 65 d1 94 3b 2c e2 eb 3d
       -0.053074356 0.10906996 0.0045415633 0.11517748
000250 c2 2e 01 be c3 ee 07 3d 78 21 c4 bb a5 6d b5 bd
       -0.12615493 0.033186685 -0.005985435 -0.08858804
000260 a9 45 14 3d a4 2f 12 3e fc 3b 38 3d c6 ee db 3d
       0.036199246 0.14275986 0.04497908 0.10738902
000270 9f ee 7b bd 01 d5 73 bd a5 81 16 3e 65 82 7d bd
       -0.061506864 -0.05952931 0.14697893 -0.061891932
000280 ac 51 a0 3d fe 6b 98 3c c6 35 5c bd 61 31 9b bd
       0.07828078 0.018606182 -0.05376222 -0.07577778
000290 65 41 9a bd 5b 3a e9 3c d4 d6 a2 bc b4 35 05 bd
       -0.07532004 0.028470209 -0.019877829 -0.03252192
0002a0 51 46 12 bd 2a 39 f4 3a 17 9b 8e 3d 31 62 ca 3d
       -0.03571159 0.0018632759 0.06963175 0.0988201
0002b0 7f 23 ca 3d d2 1e 3d 3d 50 3a 14 3e f0 ed e4 bd
       0.098700516 0.04617197 0.1447537 -0.111781955
0002c0 d1 83 6c 3d 48 4c ae bd 4c a7 8d bd fd 9e 02 3b
       0.057742897 -0.08510643 -0.06916675 0.001993119
0002d0 0d bf b0 bd fb e8 98 bd ef b2 fd 3b 8e 79 78 3d
       -0.0863019 -0.074663125 0.007742278 0.0606628
0002e0 82 41 fc bc b2 0c b3 bd 32 db d7 bd bd 5d db 3d
       -0.030792955 -0.08742656 -0.10539855 0.107112385
0002f0 aa 48 4d 3d cb d2 6c 3d 54 80 0d 3e d0 76 c8 bd
       0.050118126 0.057818215 0.13818485 -0.09788287
000300 4b aa 1d 3e 49 70 14 3e c0 71 25 3e ce ce 50 3d
       0.15396993 0.14495958 0.16156673 0.050978474
000310 71 29 7e 3d 4f 8d c4 3d 98 b4 75 3d 58 9d 1d 3e
       0.06205124 0.09597265 0.05998668 0.15392053
000320 b5 a2 44 3d 6f 1a 80 bd 9a f3 17 3d 40 71 20 bd
       0.048006732 -0.06255042 0.03709755 -0.039170504
000330 16 7f 26 be d0 81 ad 3d a5 dc 85 3b 4a fe 0c 3d
       -0.16259417 0.084720254 0.004085141 0.034422196
000340 79 66 40 3e fd cd 21 3d 69 57 ad bd 8d 2a 11 3d
       0.1878909 0.039503086 -0.08463938 0.03544097
000350 be 51 85 3d 30 20 a9 3d d0 1d 96 3d f3 b2 15 3e
       0.06509732 0.082580924 0.07329905 0.14619045
000360 d1 80 77 bc 2e a5 bd 3d b2 35 5f bd e0 4e cf 3d
       -0.015106396 0.09260021 -0.054494567 0.10122466
000370 7b 9f 75 3d c5 d6 60 3e 11 24 67 bd d8 d4 a0 3e
       0.059966546 0.21956928 -0.05643088 0.31412387
000380 2f 05 a9 3c 7f 17 1f 3e f4 ef 76 3d 07 98 00 3c
       0.020632355 0.15536307 0.06028743 0.007848746
000390 51 d4 af bd 4a f1 40 bd 17 57 00 3e 47 27 97 bb
       -0.08585418 -0.04710511 0.12533222 -0.0046128365
0003a0 cc e2 2b 3e 6b b4 af 3d 5a d4 b5 3b 8f 1a 42 3e
       0.16785735 0.08579334 0.005548996 0.18955444
0003b0 d4 e8 4e bd 8d 9b 37 be 36 1d 9f 3c 82 88 f7 3d
       -0.05051501 -0.17930432 0.019423109 0.12086584
0003c0 b0 fd 55 3d bf aa c2 3c 5a d3 0c 3d 7a 13 a0 3c
       0.05224389 0.023763059 0.034381248 0.019540537
0003d0 21 d3 17 3e 23 c8 e0 3d b8 1f 44 bd 61 86 ce 3d
       0.14826633 0.10975673 -0.04788181 0.100842245
0003e0 ab 8d b3 3c d3 f8 13 3e 42 98 7c 3e 89 96 c0 3d
       0.021918138 0.14450388 0.24667457 0.09403712
0003f0 d1 73 b6 3e 80 65 e9 3d 63 80 d4 bc 49 2c 8a 3d
       0.35635236 0.11396313 -0.025940126 0.06746728

lstm.bias_hh_l0 f4 [256]
000000 db 44 9a 3d 60 ab c2 bd 48 83 ef 3c d5 98 d2 bc
       0.075326644 -0.095053434 0.029237404 -0.025707642
000010 cc e6 74 3d 21 40 f0 bc d8 a5 ed 3d 45 84 47 3e
       0.059790418 -0.029327454 0.11603898 0.1948405
000020 e8 4b e6 bd ca 21 ec bd 3e 99 18 3e 7b 9f c2 3c
       -0.11244947 -0.11529882 0.14902207 0.023757687
000030 f8 ea b9 bd d9 35 ac bd 1e 78 8e bd fe 8a 4f 3d
       -0.0907802 -0.08408708 -0.06956504 0.050669663
000040 9e a2 00 3d da 3a 1e bd 33 7c 13 3d 4b b0 14 bd
       0.031405084 -0.038630344 0.036007117 -0.03630094
000050 2a b5 98 bd ed ab e2 3d 8b c8 8d bc 75 d3 d6 3d
       -0.07456429 0.110679485 -0.01730754 0.10489551
000060 4f cc 0e be 35 d2 8c 3d d4 9f cb bd 99 3e 89 bd
       -0.13945125 0.06876031 -0.09942594 -0.06701393
000070 86 37 95 3c bf 87 8c bb 98 55 43 3c 60 31 42 3e
       0.018214952 -0.004288643 0.011922263 0.18964148
000080 33 c2 c4 3c 55 9f 1f bd 1b da 81 3c f9 1e 94 3c
       0.024018383 -0.03897031 0.015851071 0.018081175
000090 05 0e 25 3d 67 7a d2 bc a6 01 c5 3b dc f9 82 bc
       0.040296573 -0.025693132 0.0060121594 -0.015988283
0000a0 3b 5d ac 3b b9 2d bc bd 5a f1 d5 3d fb 08 82 3e
       0.0052601374 -0.091884084 0.10446425 0.25397477
0000b0 27 9a 0d be 40 5f 3f 3d 07 9d 99 bd 2f ab c4 bc
       -0.13828336 0.046721697 -0.07500654 -0.024007408
0000c0 cf 0e 14 3e 37 f0 06 3e cb 0d 34 3d 91 33 0a 3e
       0.14458774 0.13177572 0.043958467 0.13496234
0000d0 32 b3 a3 3d e5 a2 c4 bc 9b a0 3c be 55 d2 34 3e
       0.07993163 -0.024003455 -0.18420641 0.1765836
0000e0 02 34 0a 3d 4d a0 f5 3d 67 54 09 3e 49 49 b8 3c
       0.033741005 0.119934656 0.13411103 0.022495883
0000f0 b6 d4 a4 3e 68 12 2c bd e7 6c 9e 3d ce 5f b1 3c
       0.32193536 -0.04200974 0.07735615 0.021652129
000100 41 f7 0b bd cf 61 7b 3e ce 1c 17 3e c6 0f 0e 3e
       -0.034171347 0.2454903 0.14757082 0.13873205
000110 6e 49 83 bd ba 46 de bb 38 eb c0 3d 28 63 49 3e
       -0.0641049 -0.0067833336 0.094198644 0.19666731
000120 7c 3d 7d bc 6f 00 88 3a 00 d9 57 bd e1 5c 17 3e
       -0.015456554 0.0010376106 -0.05269718 0.14781524
000130 3f e1 18 bd a5 02 6b bd 16 2e 55 be a6 2a 83 3d
       -0.037324186 -0.05737557 -0.20818362 0.06404619
000140 97 6b 8f bc d3 aa cc bd ee 77 51 3d 6f 29 ae bc
       -0.017507358 -0.0999352 0.051139764 -0.021259991
000150 4d 9d f1 3d bf 99 22 bd 16 69 0d 3e 25 29 55 3e
       0.11797581 -0.039697405 0.13809618 0.20816477
000160 5d 93 32 be 17 dd 48 3d 80 60 a6 bd 98 73 24 bd
       -0.17439027 0.049038973 -0.08123875 -0.0401493
000170 94 07 8a bd bb 2a b9 3d 7c 11 0d 3d a3 93 80 bd
       -0.06739727 0.09041353 0.034440503 -0.062781595
000180 fb 39 23 be 64 4f 56 3d 9e 65 32 bd fb 93 54 bd
       -0.15940087 0.052321807 -0.04355394 -0.051898938
000190 ee 1b 9a bd 77 05 d6 3d bc 18 90 3d 75 10 e2 bc
       -0.075248584 0.10450261 0.07035968 -0.027595738
0001a0 43 81 17 3e e1 28 f0 bd 34 1b bb 3d b2 c2 ab 3d
       0.14795403 -0.11726547 0.09136048 0.083867446
0001b0 d6 a6 3e be 7b 90 ec bd 52 08 3f 3d ea ea 10 3e
       -0.1861833 -0.11550995 0.046638794 0.14152113
0001c0 f8 53 0b 3e 9b df d9 3b c3 c4 82 3d 42 b2 c3 bd
       0.1360625 0.0066489703 0.063851856 -0.09555484
0001d0 8b b7 8c bd 95 bf ab 3d 49 69 95 bc 7d ca 40 bd
       -0.068709455 0.08386151 -0.01823868 -0.047068108
0001e0 24 7a bc 3c 43 53 c2 3d 0e 35 ec 3c 0a de f3 3d
       0.02300746 0.09488537 0.028833892 0.11907585
0001f0 3c 0b 2d be d2 55 1b 3e a0 d5 cf 3b 2e 9f 11 3e
       -0.16898817 0.15169457 0.0063426048 0.14220878
000200 7b 2a d0 3d 35 3c 90 3d f3 9b cc bd 0e c8 86 bc
       0.101643525 0.070427336 -0.099906825 -0.016452815
000210 bd b2 8d 3c 31 05 77 3d b2 e4 d9 bd bb a7 91 3d
       0.017297143 0.060307685 -0.10639323 0.0711207
000220 bd 4c b4 ba 3a 51 4d bd ab 10 08 bc c8 d1 12 3e
       -0.001375578 -0.05012629 -0.008304755 0.14337838
000230 40 3f c2 3d b1 40 9c bd d8 2d 8b 3c 64 c3 16 bd
       0.0948472 -0.076295264 0.016989633 -0.036807433
000240 40 38 a5 bd ff 7e f9 3b f4 fe bc 3d cd ef e5 39
       -0.080673695 0.007614016 0.09228316 0.0004385695
000250 b5 47 b6 bd 66 95 c8 bd b3 6b 30 bd 10 18 35 3d
       -0.08900396 -0.097941205 -0.04307146 0.0442124
000260 cb 13 05 be fb 62 9b 3d 1a 94 b8 3c aa 15 11 3d
       -0.12995832 0.075872384 0.022531558 0.03542105
000270 68 64 dc 3a 42 6d 57 3d e1 b0 23 bd de c4 27 3c
       0.0016814591 0.05259443 -0.039963607 0.010239808
000280 28 96 92 3d 1d 53 00 3d 31 c3 a0 3d 27 33 d5 bd
       0.07157546 0.031329263 0.0784973 -0.10410147
000290 f1 70 bb bd 8c 24 47 bd 53 34 e9 3c d6 b2 5d 3d
       -0.09152401 -0.04861884 0.028467333 0.05412563
0002a0 b0 0e 29 3d 9a db 2b 3d 9e 68 0e be 06 ba 97 3d
       0.041273773 0.041957475 -0.13907096 0.07408528
0002b0 e9 69 f6 bd 8d 54 83 3d 61 83 82 bd 19 ea f1 3c
       -0.120319195 0.06412611 -0.06372715 0.029530572
0002c0 39 e3 9b bd 33 4f f9 3c b6 e2 0f be 9d 7c e4 bd
       -0.07611699 0.030433273 -0.14051327 -0.111565806
0002d0 88 02 70 bd 08 ea 02 be 1e b2 9a 3d 8a 69 1f 3d
       -0.058596164 -0.12784588 0.075535044 0.03891901
0002e0 a2 ce b3 bd e0 f3 83 bd b4 69 80 3d ac e5 1d 3d
       -0.087796465 -0.06443 0.06270161 0.03854911
0002f0 a6 95 10 3e 84 82 d7 3c f5 60 b0 3d 6a 11 c9 3d
       0.14119586 0.026307352 0.08612243 0.098177746
000300 2e 67 5e bd 9a a3 85 3d 42 fc 39 3e de 42 9e 3d
       -0.05429762 0.06525345 0.18162635 0.07727598
000310 7b 04 17 3d 7f af 2f 3c ae 1d a3 3d fc 8b 46 3e
       0.036869507 0.010722994 0.07964645 0.19389337
000320 48 c2 e3 3d 33 2d 32 bd 15 fc f8 3d d4 82 81 3c
       0.111210406 -0.043500137 0.12157456 0.015809454
000330 02 00 32 be b1 6d 06 be 8f bf f8 39 8f 2a 4b 3d
       -0.17382815 -0.13127781 0.00047444968 0.049601134
000340 41 35 26 3e db 91 54 bb 94 27 46 3d 27 bf b2 bd
       0.16231252 -0.003243557 0.04837759 -0.08727866
000350 e6 33 b1 bb 35 52 05 3e 60 a7 34 3e 49 fd b1 3d
       -0.005407798 0.1301964 0.17641973 0.086908884
000360 e7 71 15 be 49 1b 81 3e 22 35 1f 3d 18 cf 01 3e
       -0.14594232 0.2521613 0.03886903 0.12676656
000370 e9 e6 a8 bd 05 1b 56 3e 07 1d 42 3d bd 76 f6 3d
       -0.082471676 0.20908745 0.047390964 0.12034366
000380 78 9d 72 bd a0 79 9b 3b 3f 24 33 3c 76 09 b0 3d
       -0.059232205 0.0047447234 0.010933935 0.085955545
000390 69 fb cc bd 7b 1c 2c bd 42 26 14 3e 04 05 1a bd
       -0.1000889 -0.04201935 0.14467719 -0.03760244
0003a0 f2 3f 86 3e c0 07 1d 3d 70 30 bf 3d 5a 24 ba 3e
       0.2622066 0.03833747 0.093354106 0.3635586
0003b0 ce 0b 70 3c db a2 2c be 17 61 50 bd e0 40 da 3d
       0.014651252 -0.16859 -0.050873842 0.10656905
0003c0 3c cc 28 3d be 20 88 3d 9e 6d b1 bd 09 11 f9 3d
       0.041210398 0.0664687 -0.08663486 0.12161452
0003d0 b9 de fe 3d 46 8a 36 3e 2e 56 60 bd 43 d0 fd 3c
       0.12444825 0.17826185 -0.054769687 0.030983096
0003e0 50 23 39 bd 21 b0 fb 3d 57 02 13 3e 6b 97 ce 3d
       -0.045199692 0.12289453 0.14356361 0.100874744
0003f0 ed fa 30 3e 2f 46 8e bd d6 78 8e 3d 62 97 f3 bc
       0.1728322 -0.0694698 0.069566414 -0.02973527

lstm.weight_ih_l1 f4 [256, 64]
000000 18 37 a8 be b4 b7 75 b9 93 b9 64 3e 16 dc 6e 3e
       -0.32854533 -0.00023433455 0.22336416 0.23326144
000010 eb 45 9d bd f7 4c 9d 3d 80 57 cf 3e 46 fe 03 3e
       -0.076793514 0.076806955 0.40496445 0.12889966
000020 90 f3 6a 3d 82 49 8a bd 6c 01 2c 3e 41 4c 85 3e
       0.057361186 -0.06752302 0.16797417 0.2603474
000030 99 0b 6b 3d 23 c0 67 be 98 00 b8 3e c0 e6 b1 3e
       0.057384107 -0.22631888 0.35937953 0.3474636
000040 73 b6 d3 bc f0 75 41 3e 16 48 d3 3e f4 6d 75 be
       -0.025843835 0.18892646 0.41265935 -0.23967725
000050 e9 de ee be 07 44 28 3d 3f 17 98 be 14 60 44 3e
       -0.46654442 0.0410805 -0.29705235 0.19177276
000060 d9 80 c0 3c db 9b ac 3c e0 3e 4f bd 82 38 d8 bc
       0.02349894 0.021070411 -0.05059707 -0.026394133
000070 23 ed 09 bf 6b 08 43 3b 15 05 65 bd 6d b8 f1 3d
       -0.53877467 0.0029759656 -0.05591305 0.118027546
000080 2f 2e ff bc 2b f4 8a bd cb 60 dc bd 7c 64 db bd
       -0.031149952 -0.067848526 -0.10760649 -0.10712525
000090 ea aa 6d be 23 0f 79 be 07 be 12 be 26 1a 88 3e
       -0.2320973 -0.2432218 -0.14330302 0.2658245
0000a0 02 81 a7 3e 81 a5 74 bb 34 51 b2 bc 53 42 ad be
       0.32715613 -0.0037330093 -0.021767236 -0.33839664
0000b0 85 9c 44 be 1d 85 39 3e 98 9e 02 3e d8 a0 90 be
       -0.19200332 0.18117185 0.12755811 -0.28247714
0000c0 0d 09 ce 3d 2a 45 3b be d5 35 9d be ef be b1 be
       0.1006032 -0.18288103 -0.30705133 -0.34715983
0000d0 49 ee 10 3e c5 29 75 3d 81 95 f0 bb 6c 7d b8 be
       0.14153399 0.059854288 -0.007342041 -0.3603319
0000e0 b8 e3 a5 be 57 ea b2 be 38 1c ad bc 8b 2c da 3e
       -0.32400298 -0.34944412 -0.02113162 0.4261211
0000f0 05 5c a8 bd 1f 83 03 be cd 53 ad 3e 05 9d e7 bd
       -0.08220676 -0.12842987 0.33852997 -0.11309246
000100 ee c4 a3 bd e6 87 41 3e 8a f8 1b 3e 84 de 86 3e
       -0.07996546 0.18899497 0.15231529 0.2634164
000110 43 6a ed bd 99 46 e3 3d bc 01 6c 3e 45 68 87 3e
       -0.115925334 0.1109745 0.23047537 0.2644674
000120 7d 19 04 3e 53 e7 0b be 61 77 32 3e 6a ed 88 3e
       0.12900348 -0.13662462 0.17428352 0.26743633
000130 e1 75 6e 3e 30 83 3f be 19 e7 08 3e ae fa 8d 3e
       0.23287155 -0.18702388 0.13369407 0.27730316
000140 3e b7 6a bd eb c7 25 3e a3 7d a4 3e 7e 94 9d 3d
       -0.05730366 0.16189544 0.32127103 0.07694338
000150 21 93 67 bd 99 65 69 bc e8 70 c5 be 82 5d 50 3e
       -0.056536797 -0.014245414 -0.38562703 0.2034817
000160 d7 8b a9 3c 52 55 7b 3e 64 e2 91 3d 0a 04 26 3e
       0.020696564 0.24544266 0.07123259 0.16212478
000170 b0 b2 83 be cf d4 df bd 89 c9 16 bd d1 f0 f0 bd
       -0.25722265 -0.10929262 -0.036813293 -0.11764682
000180 ad e8 3d bc 68 02 9b 3d 37 c1 00 bd 63 e9 12 bf
       -0.011591119 0.07568818 -0.031434264 -0.5738737
000190 02 1f 1e be e4 e5 56 be 0b f1 9f be 8f b3 85 3e
       -0.15441516 -0.20986134 -0.3123859 0.26113555
0001a0 f2 ac 93 3e dd 39 df 3d 71 33 ef bd 2c 7f 08 3e
       0.28842884 0.108997084 -0.116797335 0.13329762
0001b0 85 4f 84 be 2e f6 8a 3d 90 40 1b 3e 52 7f 94 bd
       -0.2584192 0.06785236 0.15161347 -0.07250847
0001c0 69 c1 5b be e9 a4 af be 9a d2 05 be e4 ed aa be
       -0.21460499 -0.34305504 -0.1306862 -0.3338462
0001d0 c9 c3 21 ba a5 36 05 be 33 73 c3 3d 1e ee fd bd
       -0.0006170837 -0.13009126 0.09543457 -0.12398933
0001e0 a4 8d 7e be 26 44 90 be 1e d3 49 be 4e ba cb 3e
       -0.24858719 -0.28176993 -0.19709441 0.39790577
0001f0 6f 6f a4 3e 2c fa 2b 3d dd 58 89 3e 87 1c 05 bd
       0.32116267 0.04198663 0.2682561 -0.03249791
000200 1f c3 fc 3d 8b 90 46 bd b4 52 2c be 12 7e 68 3e
       0.12341904 -0.04847769 -0.16828424 0.22704342
000210 81 6f b4 3c d0 2a 50 bd 75 e4 a3 3e fb 74 f5 3d
       0.022025825 -0.05082208 0.32010236 0.11985203
000220 3a a2 5d 3e e1 8a b8 bd 3e 4b 22 3e e0 6b ec 3d
       0.21643916 -0.09010864 0.15849015 0.11544013
000230 70 8d f0 3e 67 7c 69 bd 09 3d 28 be 9a 00 58 3e
       0.46982908 -0.057003405 -0.16429533 0.2109398
000240 f7 d5 88 3d 43 10 23 3d 38 4b af 3e 5f 73 ee 3d
       0.066814356 0.03981043 0.34237075 0.11643099
000250 a1 b5 43 be 4c 90 98 bd a9 20 5c be 81 72 98 3d
       -0.19112255 -0.074493974 -0.21496834 0.07443715
000260 66 bb 2e bd 78 67 0b 3e 8d 71 41 3e 98 3e 09 3e
       -0.042659186 0.13613689 0.18890972 0.13402784
000270 0f b4 66 be f3 76 1d be 1f 05 65 bc 94 2c 39 3d
       -0.22529624 -0.15377407 -0.013978272 0.04520853
000280 55 27 bf 3c 4e 9c 4f bd ae f8 76 3c 68 bc ba be
       0.023334185 -0.050686173 0.015073938 -0.36471868
000290 2b 86 1b be b2 94 94 be 5b bd 8a be ea 44 00 3c
       -0.151879 -0.29019696 -0.27097592 0.00782893
0002a0 6a a1 ee 3e b9 e0 34 3d d3 66 20 bd aa e4 5c 3e
       0.46607524 0.044159625 -0.03916056 0.21571603
0002b0 a3 6b a9 bd 71 40 7e 3d a8 a1 96 3d 40 c7 e2 3c
       -0.08272483 0.062073175 0.07355052 0.0276829
0002c0 14 6a 1f be 6d 5a a7 bd b8 31 3b be 08 37 76 bd
       -0.1556781 -0.08171544 -0.18280685 -0.060111076
0002d0 24 48 6f 3e 1d d1 2d be ab d5 b5 3d 45 99 bf 3d
       0.23367363 -0.16974302 0.088786446 0.09355406
0002e0 2f ae 65 be 08 3e 56 be 7c 82 c3 bd 84 17 7f 3e
       -0.22429727 -0.209221 -0.09546372 0.24911314
0002f0 56 c3 89 3e e3 5f 0f 3d 7f 83 6b 3e 31 82 c2 3d
       0.26906842 0.035003554 0.2299938 0.09497488
000300 a5 be e9 bc b5 ba 64 bd 30 c3 50 3e a7 36 b0 3e
       -0.02853329 -0.05584212 0.20386958 0.34416696
000310 74 4a 2a be 43 56 df 3d 41 34 02 3e 47 3f d0 3e
       -0.16629964 0.10905125 0.12715246 0.40673277
000320 25 d1 82 3c 46 a1 e2 bd 62 bf 8e 3e 08 ac 0f 3e
       0.015968869 -0.11065917 0.27880388 0.14030468
000330 81 29 b2 3d 1d 90 bd bd 2c 42 3c bd 55 bc 98 3e
       0.086993225 -0.09256003 -0.045961544 0.29831186
000340 71 68 31 be ae f6 6d 3e af d9 bc 3e 01 40 5d 3d
       -0.17324997 0.23238632 0.3688483 0.054016117
000350 ed 6f de be e2 98 91 bd f5 12 ea bd 7c 3b 8a 3e
       -0.43444768 -0.07109238 -0.11429397 0.26998508
000360 1b 27 c8 3c ef 85 1d bc cc aa cc bc d0 dc f1 3d
       0.02443271 -0.009614452 -0.024983786 0.11809695
000370 2f ce b5 be 06 82 df bd 67 ba f0 3d 2a 30 ba 3d
       -0.35508868 -0.10913472 0.117543034 0.09091218
000380 f2 f6 f9 3c 45 35 66 3e df 5c 64 be 19 e2 0b be
       0.03051326 0.22481258 -0.22301053 -0.13660468
000390 5b 63 d5 be c4 17 67 be fa 8f 1d ba ac fc cd 3e
       -0.41677365 -0.2256766 -0.0006010529 0.40231836
0003a0 b9 1d 05 3f 7d 11 0c 3e 0f fa 99 be 5c 4d 79 be
       0.5199848 0.13678546 -0.30073592 -0.24345917
0003b0 1e c3 50 be ce 0e 4f 3e e9 97 1f 3e 73 ac 81 be
       -0.20386931 0.20220491 0.15585293 -0.2532688
0003c0 a9 47 13 3d 27 36 3e be 83 80 79 be b3 8f 44 be
       0.035957012 -0.18575345 -0.2436543 -0.19195442
0003d0 ad 88 0c 3e 5f 9f 8f bd e1 d0 a0 3e fc 39 b5 3d
       0.13724013 -0.070128195 0.31409362 0.0884895
0003e0 bd ff 9a be 2f dd d0 be 3a 6f 84 3e 08 81 11 3f
       -0.30273238 -0.4079375 0.2586611 0.5683751
0003f0 1f 15 26 3e d8 3e a9 3d d5 19 75 3e b9 0b f7 bd
       0.16218995 0.082639396 0.23935635 -0.12062783

lstm.weight_hh_l1 f4 [256, 64]
000000 fa c7 e0 3c 8e c1 09 be 0f 88 36 bd ac 51 5b be
       0.027439106 -0.13452742 -0.04456335 -0.21417874
000010 f0 e7 93 3d 03 68 42 be 6d e0 48 bc 16 e2 cd bd
       0.07221973 -0.1898499 -0.0122605385 -0.10052888
000020 04 f1 3e 3e 9c 39 18 bd a0 95 8b bd 41 0c f3 3d
       0.18646628 -0.037164316 -0.06815648 0.118675716
000030 d3 6e de 3e 00 7c bf bd c9 93 1e bd 11 70 5a 3d
       0.43443927 -0.09349823 -0.038715158 0.05332953
000040 40 84 04 be d9 71 1a be e2 a2 dd 3d ec e4 90 bd
       -0.12941074 -0.15082492 0.10822083 -0.070749134
000050 eb 9a 47 3d cf ec 5a bc 7a ee 13 3e 77 61 33 3d
       0.048731726 -0.013362124 0.1444644 0.04379412
000060 5a 91 94 bc 6a 99 5e 3e 2e 80 c9 3d d9 a0 9f 3d
       -0.018135715 0.2173821 0.098389015 0.07794351
000070 39 f5 9b 3d 53 e8 05 be 38 eb 6b bd f1 d5 fc 3d
       0.07615132 -0.13076906 -0.05759737 0.123454936
000080 ad 5b 92 bd 0e e5 ce bd 3b 3f 82 bd ba b6 fe 3d
       -0.07146392 -0.101022825 -0.063597165 0.12437196
000090 dc 2e 08 bd ce e5 6f 3e ee 8c c5 3b d4 f8 8e 3b
       -0.033247814 0.23427507 0.006028763 0.0043631587
0000a0 9e 32 c8 bc 8d e3 c9 bc 48 19 bf 39 12 f2 c9 bd
       -0.024438199 -0.024644637 0.00036449195 -0.098606244
0000b0 74 92 08 bd 11 02 3e 3d ee c2 2f bc fc 25 a5 3d
       -0.033342794 0.04638869 -0.010727627 0.080638856
0000c0 7c f7 26 3c 78 48 43 3d 85 ad ac 3c 66 d7 ba bd
       0.010190841 0.047676533 0.021078834 -0.09123115
0000d0 fa 08 69 bd 1d 14 03 3d d5 ea c1 3b de aa cf 3b
       -0.056893326 0.032001603 0.0059178867 0.0063375076
0000e0 75 8e bc ba f0 7f 5e bd 69 56 2b 3d 0e 29 00 be
       -0.0014385717 -0.05432123 0.041830454 -0.12515661
0000f0 3b 28 4b 3d 03 f1 2b 3d 0c ca 0a be e8 6f 87 bd
       0.049598914 0.041977894 -0.13553637 -0.06613141
000100 6d 1f e8 3c b3 0c 02 3d 84 0c e3 bd 29 e1 b0 3d
       0.028335297 0.031750392 -0.110863715 0.08636696
000110 ae 60 87 bd e2 af 8a bc c6 e5 2f bd 51 aa 16 be
       -0.06610237 -0.01692957 -0.04294374 -0.14713408
000120 ef 70 71 3e e6 40 b0 bd a2 a1 53 bd 69 4f 01 be
       0.23578237 -0.086061284 -0.051667817 -0.12627949
000130 fc 52 ab 3e 3f e8 cc bd fe 87 4a bd ec 58 69 3d
       0.3346175 -0.10005235 -0.0494461 0.056969568
000140 2c 83 86 bb 38 6e 27 be d9 08 8f 3e 17 94 9f bd
       -0.0041049924 -0.16350639 0.27936438 -0.07791918
000150 8e 57 09 3e 60 20 2d be 17 c4 63 bd f9 d2 59 3d
       0.13412306 -0.16906881 -0.055606928 0.053179715
000160 80 3e a6 3d f9 16 10 3d 3f af 9d bd b1 9d ca 3c
       0.0811739 0.03517816 -0.07699441 0.024733396
000170 36 ea be 3c 94 9a 1b be 09 63 b6 3c 08 e5 28 3e
       0.02330504 -0.15195686 0.02226402 0.16493618
000180 44 82 0b 3e 6a 12 4f 3d 96 17 36 3e eb c2 ce 3d
       0.13623911 0.05055467 0.17782435 0.100957714
000190 ac a5 fa 3d d6 cb 41 3e fd a8 20 3d ea cf d8 bd
       0.12238631 0.18925413 0.03922366 -0.105865315
0001a0 02 22 0e bd 45 5c cd bc c7 46 17 3e df ec 88 3d
       -0.0347004 -0.025068412 0.14773093 0.066858046
0001b0 4a fe 4e 3d fb 94 05 3e 71 f6 19 3d aa 3c 56 bd
       0.050535478 0.13045113 0.03758854 -0.052303948
0001c0 1c 32 c2 3c c9 8e 2e 3e 59 1f b6 3c 0a cf 15 3e
       0.023705535 0.17046656 0.022231745 0.1462976
0001d0 3e ef c4 3c 1c 4c c4 3d 08 23 cc 3c 0b 17 85 bd
       0.02403986 0.09584829 0.024919048 -0.06498536
0001e0 88 53 da bd 6c 2b 11 3e e1 9c 71 3d 5e 3a 9e 3b
       -0.106604636 0.1417672 0.058987502 0.0048287353
0001f0 87 21 d2 3d 39 a6 b4 3c 44 80 1e be 78 54 d1 3c
       0.10260301 0.022051917 -0.15478617 0.025552973
000200 66 dc 16 3e d3 67 82 bd ca a0 53 b9 54 5b 56 3c
       0.14732513 -0.06367459 -0.00020182427 0.013083298
000210 f2 a4 8d bd 2c 5c e1 bc 64 da 40 3d 6f 85 44 bd
       -0.069162264 -0.027509771 0.047083274 -0.047978815
000220 d4 95 22 3e fe 0f 66 be dd 61 5e 3d 0c a7 ea bd
       0.15877467 -0.22467038 0.05429255 -0.11457643
000230 7f 27 d7 3e d6 c7 2b be ab 4a ab bd 4e 13 a1 3d
       0.4202232 -0.1677545 -0.08363851 0.0786501
000240 8c 06 75 bd 97 cc e5 3c bc 08 02 3f cf 65 c1 bd
       -0.059820697 0.028051658 0.5079458 -0.094432466
000250 36 11 c5 3d de 9c d0 3c 05 c6 25 3d 74 a4 14 3e
       0.09622423 0.025465425 0.04047205 0.14515859
000260 0b 30 41 3d 89 02 9b 3d c0 d8 55 bd fc 5d 8d bd
       0.047164958 0.07568843 -0.052208662 -0.06902692
000270 ab ed 0c 3d df bc 2a bd 54 c1 30 3e 23 d7 91 bb
       0.034406345 -0.041684028 0.17261249 -0.004450695
000280 5e 82 85 ba 2e fd fb bd 14 f6 97 3d e6 ef 0d 3e
       -0.0010185947 -0.123041496 0.074199826 0.13861045
000290 fa 5e 56 3c ee 70 e9 3e 87 93 08 3c 66 28 01 be
       0.013084168 0.4559397 0.0083359545 -0.12613067
0002a0 3d 43 9d bd 4c 63 0c 3e 5e 22 11 bc 7c d8 81 3d
       -0.0767884 0.13709754 -0.008858291 0.06340119
0002b0 50 54 94 bd 09 26 1d 3e 16 a2 27 bc e0 3d c6 bc
       -0.07242644 0.1534654 -0.010231515 -0.024199426
0002c0 ec df 25 3d c1 ba 6c bc b7 00 db bd 67 0b 27 3e
       0.04049675 -0.0144488225 -0.10693496 0.16312943
0002d0 44 c9 5c 3d e7 34 ad 3d 48 86 b1 bd e7 d4 b4 3d
       0.05390288 0.08457356 -0.0866819 0.088296704
0002e0 fa 90 f4 3b c9 f5 fd 3d 93 df 44 3d 32 13 94 bc
       0.0074635716 0.124003954 0.04806478 -0.01807556
0002f0 89 82 92 3d fb 62 41 bc 31 98 ab bd c1 93 20 3e
       0.07153804 -0.011803384 -0.083786376 0.15681364
000300 54 2b 15 bd 71 9f 3e be a6 f9 d2 bd 3a 06 4c be
       -0.036418274 -0.1861551 -0.10301523 -0.1992425
000310 c7 f5 1c 3d 7c 1d 04 bd 2c d2 96 3d a7 09 9a be
       0.03832033 -0.03225468 0.07364306 -0.3008549
000320 11 87 9d 3e 54 0e 3c bd f9 d4 8a bc a6 79 16 be
       0.3076711 -0.045912102 -0.016947256 -0.14694843
000330 05 80 e6 3e 8d a3 fa bd a4 ed cb 3a e9 57 b5 bd
       0.45019546 -0.12238226 0.0015558493 -0.08854658
000340 9d ca d3 3d c2 f8 b9 ba 60 0c 7f 3e 18 69 13 be
       0.1034138 -0.0014188515 0.24907064 -0.14395559
000350 20 6d 68 3e 36 1c 9e be ed 60 15 bc bf 79 2f bd
       0.22697878 -0.30880898 -0.009117347 -0.042840715
000360 4d 85 0a 3e 4e 59 c4 3e 0b 95 d6 3c ec 1c 8f 3d
       0.13527413 0.38349384 0.026194116 0.06987938
000370 6f 44 36 3d 7f f1 69 be 3e 73 40 bd fa 6e 31 3e
       0.044498857 -0.2284603 -0.046984904 0.1732749
000380 1e b2 1c 3e d6 69 98 bc 8e fe 3d 3e 36 a7 5d 3d
       0.15302321 -0.018605154 0.18554136 0.054114543
000390 f9 8f 8a bd 3c b8 f7 3e d6 59 29 be ef 27 1d be
       -0.06765742 0.48382747 -0.16538176 -0.15347265
0003a0 81 62 56 be 3a e2 e3 3d ff 4e 17 3e 9c a8 20 be
       -0.20936014 0.11127134 0.14776228 -0.1568932
0003b0 c1 41 05 bd 4c 3d 29 3d e0 4b 6e be 87 5c 96 bd
       -0.03253341 0.041318223 -0.23271132 -0.07341867
0003c0 ed 81 0a 3d 5e 0a 0f 3b f6 71 10 bd 40 cd 1d 3e
       0.033815313 0.0021826248 -0.03526493 0.15410328
0003d0 a4 da a6 3d 49 4e 6e 3d 62 64 ea bd b6 eb 09 3d
       0.08147171 0.058180127 -0.11444928 0.033672057
0003e0 74 9f c9 bc eb 9c 16 3e 22 83 90 bc ef 55 3f 3d
       -0.024612166 0.14708297 -0.017640654 0.046712812
0003f0 ea da 3c be fe c8 28 3e a1 43 b3 bd 4e a0 31 3e
       -0.18442884 0.16482922 -0.087531336 0.17346308

lstm.bias_ih_l1 f4 [256]
000000 14 ea 97 3d 38 ef c1 3d 06 6e fd 3d e8 8b 80 3c
       0.07417694 0.094694555 0.12374501 0.015691712
000010 0f cc 3c 3e 2e 1e c5 bd d7 5e 58 bc 04 d3 2f bd
       0.18437217 -0.09624897 -0.013206205 -0.04292585
000020 ec b3 9f 3e b6 dc 15 3e 24 5e e7 3d 3e 43 71 3d
       0.31191957 0.14634976 0.11297253 0.058902018
000030 e0 0d 3b 3e f5 0b 35 3e 96 cd fc 3d b5 96 08 3e
       0.18267012 0.17680342 0.123439 0.1333874
000040 f9 00 a1 3d f4 ab 37 3d 11 01 4c 3e 37 6e 9a 3e
       0.07861514 0.04484172 0.19922282 0.30162212
000050 67 21 3a bd 34 20 b8 3d e6 86 e4 3e 9b d4 a8 3c
       -0.04544201 0.08990517 0.4463417 0.02060919
000060 88 c2 40 3e 3d 81 2d 3e aa d3 94 3d 5a eb 1c 3e
       0.18824208 0.16943832 0.07266934 0.15324154
000070 ba 1f 0a 3e 31 51 97 3e 02 be 4b 3e 40 47 28 3e
       0.13488665 0.29554132 0.19896701 0.1643343
000080 97 1a 4d 3e 15 c3 0d 3d d1 4f 9d 3d dc 17 03 3e
       0.20029674 0.034609873 0.076812394 0.1280207
000090 55 a5 6a 3d 61 d1 e4 3e 57 09 d9 3d bf 05 64 3e
       0.05728658 0.44690993 0.105974846 0.22267817
0000a0 27 d4 7f bc 67 eb fa 3b b9 ec 14 3d 3d f1 5a 3d
       -0.015614546 0.0076574567 0.03635857 0.05345272
0000b0 82 c6 d5 bc aa 70 75 3e f5 5a 82 3d 41 13 45 3e
       -0.026095632 0.23968759 0.06365005 0.19245626
0000c0 4f 31 86 3d 90 f7 55 3e df d8 f5 3d a9 f0 ba 3e
       0.065523736 0.20895219 0.120042555 0.36511734
0000d0 47 91 ca 3c 98 38 e0 3d 5c d0 9a 3c fa 6e 6a bc
       0.024727477 0.109482944 0.018898182 -0.014308685
0000e0 17 b5 d9 3e e6 62 6b 3c 7a 5d 9a 3e 7b fa dc 3d
       0.42520973 0.014366841 0.30149442 0.10789963
0000f0 e9 fd 01 3d f8 85 6e 3e 2a 6d e2 3c 54 9b a3 bd
       0.03173629 0.23293293 0.027639944 -0.07988611
000100 8b 50 bb 3c 11 a1 d5 bc 73 17 e2 3c a2 82 d1 bc
       0.022865554 -0.026077779 0.027599072 -0.025574986
000110 fa ef 67 bc 33 24 86 bb 87 87 9f 3d e1 e4 6f 3d
       -0.014156336 -0.0040936708 0.07789522 0.058567885
000120 96 59 00 3d cb 1e c4 3d 40 84 0c 3e 45 9d 2c 3e
       0.031335436 0.09576186 0.13722324 0.16856869
000130 06 a0 13 3d 5a 17 cf 3d 84 21 85 be 39 b8 b1 bd
       0.036041282 0.10111876 -0.26002133 -0.08677716
000140 5b e3 25 3e 64 b0 c7 bc 71 88 18 3e 91 6d ce bc
       0.1620001 -0.024376102 0.14895798 -0.02519873
000150 d8 84 8c bd e7 28 ff 3d a7 75 3c 3d f9 42 0c bd
       -0.068612754 0.124589734 0.04601064 -0.034243558
000160 81 ed 51 3d 47 4c 6f bd 20 38 33 bd 34 16 27 3d
       0.051251892 -0.058422353 -0.043754697 0.04079266
000170 d7 3a 24 be d5 16 14 bd eb 3e a1 bd 7c 87 11 3e
       -0.1603807 -0.036154587 -0.07873329 0.1421184
000180 47 22 ff 3d fc db 1b 3e c4 8f 49 3d 36 e3 4c 3d
       0.1245771 0.15220636 0.04920937 0.050021373
000190 4d c6 06 3e 45 0e db bb 01 72 02 be bf 4d 19 3e
       0.13161583 -0.0066850507 -0.12738802 0.14971064
0001a0 c5 0e d0 3d 5a c8 55 3d 43 4d 92 3b 2c f4 12 3d
       0.10159067 0.052193023 0.0044647767 0.03587739
0001b0 c6 f7 6c 3c 96 1e 26 3e 3c 9e 9a 3d 75 95 00 3e
       0.014463371 0.16222605 0.07549712 0.12557013
0001c0 67 71 3e 3e 77 3d fd 3c e6 7d 9e 3c a3 dd 0d 3d
       0.18597947 0.030913098 0.019347142 0.034635197
0001d0 8f ee 6e 3d 35 f1 d5 38 0c 00 f6 3d 46 62 d1 bd
       0.058332976 0.0001020156 0.12011728 -0.10223822
0001e0 db 67 04 be ab 76 2a be b4 ad ed bd 5c 48 60 be
       -0.12930243 -0.1664683 -0.11605397 -0.21902603
0001f0 86 34 ec bd bc f8 a4 3c d6 17 80 bc 61 9d 0a 3e
       -0.115334556 0.020138137 -0.015636366 0.13536598
000200 dd 68 4f 3e b3 26 57 be 01 3d 32 be aa 71 dc bd
       0.20254846 -0.21010856 -0.17406084 -0.10763867
000210 20 80 90 bd 68 d9 34 be 24 86 20 3e db a7 9d bd
       -0.07055688 -0.17661059 0.1567617 -0.076980315
000220 4a c8 1f 3e 94 2b 28 bd 54 d1 ed bc 21 00 45 be
       0.15603748 -0.041057184 -0.02903048 -0.1923833
000230 58 4c c9 3d 10 99 1e bd a2 47 15 be 0e 9a 83 3e
       0.098290145 -0.03872019 -0.14578107 0.25703472
000240 93 1b 16 3e 5e 40 01 be d1 d0 4a 3e 88 c5 d5 bd
       0.14658956 -0.1262221 0.1980622 -0.10438067
000250 d6 36 00 3e 74 93 13 be a5 31 46 3e 1b ae 72 3e
       0.12520918 -0.14411718 0.19354875 0.23699228
000260 6a 02 7b 3e 29 22 07 3d 40 61 81 3d e7 f5 0e bd
       0.2451264 0.032991562 0.06317377 -0.03490248
000270 6c 26 95 bd c5 b9 02 3e 91 4f 53 bd d5 7e d4 3d
       -0.07282719 0.12766178 -0.051589552 0.10375754
000280 78 16 5c 3e 1c 30 a3 bd 80 4a 33 3e f1 7b f9 3d
       0.21492946 -0.079681605 0.17508888 0.12181843
000290 b9 71 49 3e 5b 5e c0 3b 6a 98 46 bd 60 57 cc bd
       0.19672288 0.005870623 -0.048485197 -0.09977603
0002a0 df c3 8e bd fe e5 1e 3e e8 a1 93 bd 0a 43 a1 bd
       -0.06970953 0.15517423 -0.072086155 -0.07874115
0002b0 9e d7 39 be b4 7f dc 3d 3f db 05 bc dc d9 07 be
       -0.18148658 0.10766545 -0.008169948 -0.132667
0002c0 ae 92 43 be 04 8b 15 3e 2f 6b 18 be 92 6b e2 3d
       -0.19098923 0.14603812 -0.14884637 0.11055674
0002d0 83 cf 09 3d f5 97 86 bd 27 f7 f0 bd dc 13 11 3d
       0.033645164 -0.06571952 -0.117658906 0.03541933
0002e0 88 c4 a9 3d bc a5 2c bd 23 5a 86 3d 63 d7 98 bc
       0.082894385 -0.042150244 0.06560161 -0.018657392
0002f0 43 5c 97 bd 18 98 27 bd 0c eb 30 be 49 a3 c8 3d
       -0.073906444 -0.040916532 -0.17277163 0.09796769
000300 d3 ff 83 3e e3 cb 7a 3d 8c 99 c9 3d e1 80 9c 3d
       0.25781116 0.061229598 0.0984374 0.07641769
000310 69 1f 70 3e 95 99 ab bd 49 d1 f6 3d 71 fe ec 3d
       0.23449482 -0.08378903 0.12051637 0.11571968
000320 ed bc 9d 3e 4c 46 68 bd d0 19 28 3e 2a 56 ca 3d
       0.308082 -0.056707665 0.16416097 0.09879716
000330 3d 89 4f 3e 5c 8e a6 bb 3d c0 58 3e 60 e7 92 3e
       0.20267196 -0.0050828885 0.21167083 0.2869215
000340 e1 43 52 3e a8 c1 6e 3d f9 73 67 3e 34 90 da 3e
       0.20533706 0.058290154 0.22602834 0.42688143
000350 d0 a7 6e 3c e2 71 a8 bd 6f 4f e8 3e 56 a9 fc 3d
       0.014566377 -0.082248464 0.45373103 0.12336986
000360 78 dc 1a 3e 5f b4 39 3e 8e 54 c4 3d 9f 7b 27 3e
       0.15123165 0.18135212 0.0958644 0.16355751
000370 c2 2e 59 3d a6 c8 a9 3e 70 d2 2b 3e 66 02 bb bd
       0.053023107 0.33160895 0.16779494 -0.09131317
000380 25 be 1b 3d 90 36 ca 3d 78 87 ac 3d 9d 6f 07 3e
       0.038023133 0.09873688 0.08424276 0.13226171
000390 7f fb cb 3d 89 6a 98 3e 32 4f 11 3e 34 e3 fd 3d
       0.099600784 0.2976878 0.14190367 0.12396851
0003a0 04 2a fc 3d c4 f9 90 3d f7 8e 03 3e 75 36 81 3d
       0.12312701 0.07078889 0.12847506 0.06309215
0003b0 f9 b3 9d bd 80 16 82 3e e3 e6 d6 3d 79 25 f9 3d
       -0.07700343 0.2540779 0.10493257 0.121653505
0003c0 c9 38 98 3d cd 65 0a 3e 17 6c a5 3d a0 39 c3 3e
       0.07432706 0.13515396 0.08077257 0.38129902
0003d0 7a aa 9b 3d 25 1c 05 3e 1e 54 e0 3c 16 b0 96 3b
       0.07600875 0.12999018 0.02738386 0.004598628
0003e0 39 d4 d4 3e d7 40 f0 3d 28 05 e7 3e 51 c2 c8 3d
       0.41568163 0.11731117 0.4512112 0.09802688
0003f0 7a 23 78 3d 1e 21 a3 3d de 28 7e 3c b3 2d 05 3e
       0.060580708 0.07965301 0.015512673 0.13005714
